Ai-Resume/TabTransformer_Final_Model.pt (torch, 128789 bytes, 20 tensors)

cat_embeddings.0.weight f4 [5, 48]
00000000: b24b cf3f 614d 033f 42e6 ffbe 12df b8bd
00000010: 5323 8dbf 2278 e6be 1b47 9bbd 8223 1a3f
00000020: 77ed 65bf 133a ec3e ce07 563f 622c c2be
00000030: 9329 debf 55dd 85bf 938f e63e 430a bb3e
00000040: 886d 86bf cc61 41bf 5888 38bf 393c a43d
00000050: 6d12 3a3f 6944 f5be 8009 b1bf 7a3e 1bbf
00000060: 09fc f63e 83f7 d43c d177 ec3d 6049 a1be
00000070: 01e0 a93f f1c5 8f3d 40ff 15bf 034b e53e
00000080: 4c3d 2d3f 627f 893e d47f 80bf 629b d3bf
00000090: c7b2 2d3d 7c23 883e e114 a9be 81cd 3c3f
000000a0: cde1 063f d36b 7fbf d695 ea3e 3be1 1d3f
000000b0: 04e3 21bf 15b3 073f 7513 8cbe 4bdc 8a3c
000000c0: 75d6 1d3f d57e d23e 7a3a cb3d ac10 87bf
000000d0: 4e3c 09bf dca9 e9be 556a f63f 7d3c 9abc
000000e0: 47c0 db3e d827 cb3f 43fb 3dbf 6a44 233e
000000f0: 2bde 783f 0652 873f 0454 6b3f a3db 613e
00000100: 778f 5dbe ff1b 483c 4129 af3f ce74 a93e
00000110: 6e42 e23f ec52 d9be a728 0ec0 a428 06be
00000120: 89d6 f83e 92b2 283e ff48 0a3f 0ed6 94be
00000130: 8fc2 4a3d 32e7 1840 c4c1 0c3e 7675 453f
00000140: f20c b6bf 8405 9b3f d11d 12bf e47f 9f3e
00000150: d906 c83f b5b9 c63d c4ce dabf 83cf 5fbf
00000160: 0488 75bf a666 d03e 49d8 2a3f a0fb dcbe
00000170: 59bc 3f3f 4190 05c0 0ad6 ba3e 1ece 4cbe
00000180: 5c80 273f 4481 9fbf 3cc8 5dbf 34d6 8abf
00000190: 8e1e 4c3e ed52 a0bf 9463 893e 6b9c c0bf
000001a0: d500 82bf c02a ef3e 33e5 b8bf ae80 9bbf
000001b0: 14ac 833e 991e cb3e 2450 a93e 31da 933f
000001c0: cfdc 4dbf 3377 c7bf 5ebf 453f 9e84 83bf
000001d0: 836e b5be b9a2 0d40 5d3d c53e 4d8c 883e
000001e0: 6000 9abf fa9f f0bf 9cf4 af3e e930 f0bf
000001f0: e9ee 383f 94b6 6bbe 0a4b 98be d54e 75bf
00000200: 95b6 2e3d 3227 91be 1ae2 8ebd b1b0 8cbf
00000210: 1e0a 103d 5de8 02be 2418 72bf 477a 39bf
00000220: 3470 783f 2c61 1140 ee85 4e3f 7f04 913f
00000230: 4f68 283f d50d f1bf 13fc 03c0 575d 0dbe
00000240: 13f3 4a3f 8f7b a33f 356b 73bf 45ab 4e3e
00000250: a3a6 17be 6976 22bf 10ac 133f a5bd 5bbf
00000260: 4cca b23f 5495 a93d 5c92 a93e eabe 05bf
00000270: b839 84bf f958 53bf 2889 2c3f ae71 a7bc
00000280: 2f91 25bf 5b56 babe 2a46 3fbf 85a2 adbe
00000290: 1e26 aa3f b35d f73d 320e 993f c104 3c3e
000002a0: d41a adbf 8af7 99bf 9077 e13d 130e 333e
000002b0: 04ad f1bd 5b28 923f 6a4a debd 3086 b83f
000002c0: abcb de3e d141 46bf f750 abbe fc18 43bf
000002d0: 5f95 a83f 0d92 c23f 91a4 c1be 2e41 c6be
000002e0: 9683 293f d7db 96be 202c 9c3f 72e6 1f40
000002f0: 3842 073f f34a 663f 3665 d23e e625 9ebe
00000300: 6648 ff3e 6a3b 8bbf 2aa0 953e df57 a43f
00000310: 91ab 053f 035f ea3f 9305 3a3f a7e9 af3e
00000320: d622 81bf b29c 09bf 8d2a f3bf cf2b 9f3f
00000330: f2fa 3e3f 1d4c c33c b567 c4bf 64a1 0240
00000340: 69a6 05bf e8d3 ff3d 97a0 5abe 18bd 883f
00000350: 7ddb 40be 87f6 5dbf 29e0 883f ac9d 11bf
00000360: 1923 b3bf abf2 80bf 25d9 86bb 7ad9 b9bf
00000370: 9460 5e3e addd 9e3e bb6f c23f 1034 15bc
00000380: e575 473f ba11 d63d 9a54 083d b508 11bf
00000390: 81eb 1f3f fc77 ef3d 09a6 ea3e 51f5 ebbe
000003a0: 4de2 f63e 1f38 993f 31a3 213f eed2 0fbf
000003b0: 4b4c 433e a582 ebbe e7fd f53e 3556 44bf
1.6194975 0.51289946 -0.4998036 -0.09026922 -1.1026405 -0.4501353 -0.07581922 0.6021043
-0.8981547 0.46138057 0.8360566 -0.37924486 -1.7356437 -1.045817 0.45031413 0.36531267
-1.0502176 -0.7553985 -0.72083044 0.08019299 0.72684366 -0.47903755 -1.3831024 -0.60642207
0.48239163 0.025996929 0.11546291 -0.31501293 1.3271486 0.07020176 -0.58592606 0.44783792
0.67671657 0.26854998 -1.003901 -1.6531794 0.042406823 0.26589572 -0.33023742 0.73751074
0.52688295 -0.997739 0.4581744 0.616718 -0.63237023 0.5300763 -0.27358595 0.016950747
0.6165536 0.4111239 0.09923263 -1.0551963 -0.5360764 -0.45637405 1.92512 -0.018827671
0.42920133 1.5871534 -0.7421152 0.15944067 0.97214 1.0571907 0.9192507 0.22056441
-0.21636759 0.012213706 1.3684465 0.33096927 1.7676523 -0.42446077 -2.2212312 -0.1310144
0.48601177 0.16474369 0.54017633 -0.2906956 0.04950195 2.389111 0.1374579 0.77132356
-1.42227 1.2111058 -0.57076746 0.3115226 1.562709 0.097033896 -1.709435 -0.8742601
-0.9591067 0.40703315 0.66736275 -0.43160725 0.7489677 -2.0869296 0.36491424 -0.20000502
0.65430236 -1.2461324 -0.8663366 -1.084662 0.1993353 -1.2525307 0.26833785 -1.5047735
-1.0156504 0.46712303 -1.4444946 -1.2148645 0.25717223 0.39671782 0.33068955 1.1550962
-0.8041505 -1.5583252 0.7724513 -1.0274847 -0.35435876 2.2130568 0.3852338 0.2666954
-1.2031364 -1.8798821 0.3436631 -1.8764926 0.7223955 -0.23018867 -0.2974475 -0.95823413
0.042654593 -0.28350216 -0.06976719 -1.0991422 0.0351659 -0.12783952 -0.94568086 -0.72452205
0.9704621 2.271556 0.8067311 1.1329497 0.6578416 -1.8832346 -2.0622604 -0.13805138
0.7927715 1.2772082 -0.9508546 0.20182522 -0.1480966 -0.6346193 0.5768442 -0.8583625
1.3967986 0.08280435 0.33119476 -0.52244437 -1.0330114 -0.82557636 0.67396784 -0.020439949
-0.6467466 -0.3639401 -0.74716437 -0.33913055 1.3292882 0.120784186 1.1957457 0.18361188
-1.3523812 -1.2028668 0.11009133 0.17485838 -0.11800578 1.1418566 -0.10854037 1.4415951
0.4351476 -0.7744418 -0.3346021 -0.7621 1.3170584 1.5200821 -0.37820867 -0.38721603
0.6621641 -0.294646 1.2200966 2.4984403 0.52835417 0.89958113 0.41092843 -0.3088829
0.49859923 -1.0877507 0.29223758 1.2839316 0.52214915 1.8310245 0.72664756 0.3435795
-1.0088756 -0.53754723 -1.899736 1.2435244 0.7460166 0.023840005 -1.5344149 2.0411005
-0.52207047 0.1249159 -0.21350323 1.0682707 -0.18833728 -0.86704296 1.0693408 -0.56881213
-1.3995086 -1.0074056 -0.004115241 -1.4519494 0.21716529 0.310285 1.5190347 -0.009106651
0.7791427 0.104526 0.033283807 -0.5665391 0.62468725 0.11692807 0.458298 -0.460856
0.4821953 1.1970252 0.63139635 -0.5618123 0.19072072 -0.4599811 0.48045275 -0.7669404

cat_embeddings.1.weight f4 [24, 48]
00000000: d552 0abf d042 93be 00e2 a6bf 53ea cb3f
00000010: 044c 7abe dd8a 8fbe a989 693c 4702 2dbf
00000020: 3aa4 bfbc 557a 81bf ffb7 49bf f140 553f
00000030: ce14 2cc0 b0d1 c7bc df88 c13e 0504 ff3e
00000040: e5eb e2bf a92f 3fbf cbe4 8d3f d6b7 e5be
00000050: 83f1 c1bf b638 13bf 5336 083f d55c da3e
00000060: 0569 a3be 325c 013f 1126 2cbf f498 773e
00000070: ffab 2c3f cde6 a5bf 6a62 043f e9d7 dc3e
00000080: f0a1 6e3f 6139 183f 3612 13c0 9e06 babe
00000090: 8ed5 c53c 016e 9cbf dc5a 803f 251c 9c3f
000000a0: 1efc 513f 4b47 cc3f 1b96 943c 61bd fb3e
000000b0: 17ef 9fbe 8b3b 64bd 949c 0c40 429d b43e
000000c0: ccee df3f 710a 31bd 3af9 21c0 b305 893f
000000d0: 82c2 b33f 5512 2bbf 6bfd 963e 71f2 c9bf
000000e0: 9ea5 063f 0c2f 1d3f f58d 90bf bc53 953f
000000f0: 2c8b 80be 2735 993e 70d1 933f c596 87bf
00000100: 12d6 a6be 1220 d5bf 8173 5f3f fcb8 853f
00000110: a288 3bbf 9646 833f 47e8 0fbf 8746 bf3e
00000120: 63d1 0cbf fa78 e13e 1cfc 9bbe 7c95 dfbf
00000130: c96f 2bbf 36fc 303e ba1a c0bd 4ee6 a53e
00000140: 8f62 ffbc 31d1 b1bd 35da 4bbf 9244 73bf
00000150: a8af 583f b2b2 98bf cda8 b73e 0fdb 02bf
00000160: 56bd afbf 5ad3 353f 8c04 0040 c44b a23d
00000170: 9ebf c9be 419e 783f 1409 c23e 72c3 933d
00000180: af81 5bbd cb84 87bd 8575 2e3e ad3d f3bf
00000190: 91fa e9be d6ff 6d3f 4113 16bf 483c 39bf
000001a0: 3d55 973e 4b14 8b3e 207d b63e ddf6 dcbd
000001b0: e9d4 24bf 5f7f 86bf 7825 853f c1c0 023f
000001c0: b0ce 10bf 2fe3 8c3f 8d57 e9be 5dd0 8f3f
000001d0: 5e70 edbe 8236 883e b273 09bf 999a 39bc
000001e0: 10a6 22bf 8a7e 283f a91e 66be 1678 823f
000001f0: 5784 4f3f be2a 9b3f ac37 c0be 44c7 233e
00000200: 1059 80be cb19 43bf e0c3 67be 98a6 4fbf
00000210: 337c 23c0 8cfd e13c 6c9b 73bf e4ab bc3d
00000220: baa8 733f 6f26 6b3e 428e 1a3f 8efa ddbb
00000230: 7e65 433e 6155 323f 8722 30bf 5d28 013f
00000240: 41cd 0cbf 4207 f2bf a5fe d33e ee50 9f3f
00000250: 9dbd 9dbd f602 113f f66a 2ebf 0e73 f13f
00000260: 7871 66be e159 10be 53d4 b93f 009b 8a3d
00000270: 3bcd 29bf c182 e4be e7e9 5fbe df62 bd3e
00000280: e72f 97bf 0d83 b8be 4507 36bf 8b7d ee3f
00000290: 2bf0 473c 8109 b6be 223d 5e3f 1358 49bf
000002a0: b148 d83f e070 473f 584f 893f 4c2f ba3d
000002b0: 42b7 86bf e699 c8be 92bb 40bf 8313 56be
000002c0: 1162 6b3f 96d5 5e3f f8e5 da3e d34b 243e
000002d0: 513f a03e df13 ab3f 5a9a e7bf 33bd bcbe
000002e0: a68f 9dbe 31f9 c1bf dee7 1fbf 7df7 b23e
000002f0: 9358 a43f f5b4 cc3d 1903 b13c d6e5 843e
00000300: 05d4 5b3e d571 dc3e 755d 03c0 00a0 37bf
00000310: 56c1 cc3f a7cb d8be 7a19 cdbf b9c2 d53f
00000320: 805a b43d dd9e d53e d75e c33e 942a a8be
00000330: 9526 4ebf 30f4 afbf 56a0 a63e cea6 9fbf
00000340: 6d51 00bf fe60 823f 7532 803f a932 b1be
00000350: 379f f23e f76c babd 6971 743e 93d1 cbbd
00000360: 0c6a d1bf e06d 913f b75d f93f 6233 163f
00000370: a6c8 03be 805d ed3e 6378 68bd 731a 1fc0
00000380: 4a12 ee3e eec8 20bf d4f1 623f 1459 553f
00000390: 50b3 03bf 2e50 27bf 80be c1bf 40b4 e8be
000003a0: 9502 1bbe 2bab c7bf cd7a abbf 3dd9 c13e
000003b0: cb32 833f 06bc c0bf 9dec d1bf f069 d63b
000003c0: dc4e 3240 bb50 883e 74e9 0e3e e223 253e
000003d0: 23ae 9ebf d0dd 503f cbe1 c23e 35d5 213e
000003e0: 1955 4b3e e8e0 4dbf e77e 5ebf 93be 393e
000003f0: 8326 ee3e 0a79 6ebf 9a6f 92bf 5048 08bf
-0.5403264 -0.2876191 -1.303772 1.5930885 -0.2444306 -0.28035632 0.014254012 -0.675816
-0.023393739 -1.0115458 -0.7879638 0.8330222 -2.6887698 -0.024391979 0.37799737 0.49807754
-1.7728239 -0.746821 1.1085447 -0.44866818 -1.5151829 -0.5750841 0.5320789 0.4264895
-0.3191606 0.50531304 -0.67245585 0.2417944 0.67449945 -1.296106 0.5171267 0.43133476
0.93215847 0.59462553 -2.2979865 -0.36333174 0.024149682 -1.222107 1.0027728 1.2196089
0.82025325 1.5959257 0.018137982 0.49167922 -0.312371 -0.055720847 2.1970568 0.35276228
1.749475 -0.04322285 -2.5308366 1.0704864 1.4043734 -0.6682485 0.29490218 -1.5777112
0.5259646 0.6139991 -1.1293322 1.1666179 -0.2510618 0.29923365 1.154829 -1.0592886
-0.32585198 -1.6650412 0.8728562 1.0447078 -0.7325536 1.0255916 -0.562138 0.37358496
-0.55007 0.4403761 -0.30465782 -1.7467494 -0.66967446 0.17283711 -0.09380098 0.3240227
-0.031174926 -0.08682478 -0.7962983 -0.95026505 0.8464303 -1.1929533 0.35870972 -0.51115507
-1.3729656 0.7102562 2.0002775 0.079246074 -0.39404005 0.97116476 0.3789755 0.072150126
-0.053590473 -0.06617125 0.17037018 -1.9003197 -0.4569898 0.929685 -0.5862313 -0.72357607
0.2955722 0.2716392 0.35642338 -0.10789273 -0.64387375 -1.050762 1.040206 0.5107537
-0.5656538 1.1006831 -0.45574608 1.1235462 -0.46374792 0.26604086 -0.5369216 -0.011328363
-0.6353464 0.65818083 -0.22472633 1.0192897 0.8106131 1.2122419 -0.37542474 0.15993983
-0.2506795 -0.7621123 -0.22633314 -0.81113577 -2.5544555 0.02758672 -0.9515903 0.09212473
0.9517933 0.2296388 0.6037332 -0.006774253 0.19081685 0.6966153 -0.68802685 0.50452214
-0.5500069 -1.8908465 0.41405216 1.2446573 -0.077021815 0.56645143 -0.6813196 1.8863237
-0.22504222 -0.14096786 1.4517921 0.06767845 -0.6632878 -0.44631007 -0.2186657 0.36989495
-1.1811494 -0.36037484 -0.7110484 1.8632063 0.012203257 -0.35554126 0.8681203 -0.78650016
1.6897184 0.7790661 1.0727339 0.090910524 -1.0524676 -0.39179915 -0.7528621 -0.2090588
0.9194651 0.87044656 0.42753577 0.1604455 0.31298307 1.3365439 -1.8093979 -0.36863098
-0.30773658 -1.5154172 -0.62463176 0.34954444 1.2839531 0.09995452 0.021607922 0.259566
0.21467598 0.43055597 -2.0525792 -0.71728516 1.5996501 -0.42342874 -1.60234 1.670005
0.08806324 0.41722766 0.38158295 -0.32844985 -0.8052762 -1.3746395 0.32544202 -1.247278
-0.50124246 1.018585 1.0015398 -0.34608963 0.47387096 -0.09102815 0.23871388 -0.099520825
-1.6360488 1.1361656 1.9481725 0.58672154 -0.1286951 0.46360397 -0.056755435 -2.4859893
0.46498328 -0.62806594 0.8865025 0.8333905 -0.51445484 -0.6535672 -1.5136261 -0.4545002
-0.15137704 -1.5599111 -1.3396851 0.37861052 1.0249876 -1.505738 -1.6400334 0.0065433905
2.7860632 0.26624092 0.13956243 0.1612697 -1.2396892 0.8158846 0.3806289 0.15803988
0.19856681 -0.80421305 -0.8691239 0.18139105 0.46513757 -0.9315344 -1.1440308 -0.5323534

transformer.layers.0.self_attn.in_proj_weight f4 [144, 48]
00000000: 7f33 d53d 3405 713d 125d 5ebd 4c0c 223d
00000010: d6e6 163e 27f4 8b3d 8f78 6a3e 4bba ac3d
00000020: 8705 11be a824 ddbd dc4a a63b 62ed 06bd
00000030: 876d 2cbd f2eb 2dbd 4259 063e 808c cb3d
00000040: c756 103e 3eca 19be b20e 633d 543b 9dbc
00000050: d0f1 4c3d 7fd9 6dbd adfe c9bd 4ede 823c
00000060: 9ef9 f6bc 176b 54be 70bc 533e 79da 853d
00000070: 7bad 9c3b 37a6 273e ce6c b3bd 1985 97bd
00000080: afab bdbc 23a5 ed3d 4d14 a2bd 6ba2 d03d
00000090: d705 543d fb54 f6bd 66b8 183d 0980 debd
000000a0: 4d13 7fbd 0c61 d53c 7a42 0fbc cd27 043e
000000b0: d4dc 30be cd95 85be e613 083e 9004 dc3d
000000c0: 55c9 d33d 74fd a5bd 6eae 0c3d e63d 8c3d
000000d0: 7884 5cbe a28f bebd 8a49 7bbd e141 f93d
000000e0: 14aa 87be ae52 bdbd 68a5 1dbe d7b0 5ebe
000000f0: 1c6d 50be ebc3 063e 0208 863c 6037 923c
00000100: 9ba9 83bc 274f 603b 2da9 123e fb69 1a3d
00000110: 7b20 89bd 397b b7bd b51a f9bc bbea 9b3d
00000120: b92f 8d3b 1b49 aa3d cee1 083b af1f 8dbd
00000130: 1ace af3d a5f5 1e3e b793 81be 9406 e3bb
00000140: 036c c0bd 63c2 3a3e 05d7 dcbd b7e5 cdbd
00000150: 83d3 223e 83d3 6ebe 6888 613d 85bb 5f3d
00000160: ee5c 25bc 9c01 373d cf32 4bbe 44a7 babd
00000170: 8b56 25bc 9642 923d e050 82bd b683 cfbd
00000180: 3c72 183e 1243 363e b266 26be 8a42 1b3d
00000190: ff87 463c b2ae 11be 6e7e 71bd 9494 923d
000001a0: d810 2cbe efe9 9e3d 4eff e9bd ec23 75bc
000001b0: fde4 e43d d84b 933d 4554 2c3e 1cb9 8bbe
000001c0: 9aa0 aebc 8d2f f63d 709c 603c 8c38 81bd
000001d0: 37ca 193e b7f1 b73d 6c27 99bd c1a2 f43d
000001e0: 8a25 4cbe 823b 3cbe fc74 833e f071 62bd
000001f0: fbce 933d bd55 e63d a445 4ebe 1e94 173e
00000200: 8a91 653b 3d74 53be dbd1 f7bd 5001 0e3e
00000210: 661f 583b 09d6 803e 3ee8 abbd 53b7 243d
00000220: d70c cc3c ae86 adbd 81f1 dd3d d060 103e
00000230: f246 15be 5f4a cb3d 83c6 efbd 363d 24be
00000240: 01eb b53d 8c4c 1abe 0b9c 3d3e 7d6e 17bd
00000250: 9429 5ebe f780 a1bd bff2 c8bc e711 aabd
00000260: 30c2 24bd e464 9cbd 7a93 3e3e 930a 17be
00000270: d4b0 46be 322e 843d 5b71 363e 9583 973d
00000280: eabd 07be 2308 debd 2b35 e1bd bc27 aebc
00000290: 7aa2 003e 3a45 4ebe a38d 963c 560f 07be
000002a0: 92b6 5c3d 07e6 2abe ea9b 123d a0e8 023d
000002b0: dcbd 643e 080c b9bd d854 91be e378 563d
000002c0: f3f0 093e 8554 803e 19fa 80be ecdd 5fbb
000002d0: 47bf 19be 0cec 463e 70ac 0cbe e78d 093e
000002e0: 850b 783e fa48 3bbe 2d62 3bbe 6beb 2cbc
000002f0: 3d3a e0bd 1b4d 3d3e 305c ef3d 5d9d ac3d
00000300: 2073 b6bd e66e ce3d 6c2d 32bd d559 d3bd
00000310: 2a59 d4bd f18e 05be 9c46 1fbe 8e7b 9abc
00000320: 0cd7 bbbc 5570 40bd 512c 473d 08cd 34be
00000330: 6460 8ebe e64a cd3d 29ee ab3d 223f 7f3d
00000340: eba5 4ebd 09f6 6dbc 3a87 053d 1c8d 483d
00000350: 8ab1 8cbd 82ee 35bc 868c c4bd a7e6 69be
00000360: c645 4fbd 9471 653d 4953 2dbe dd2a 8a3d
00000370: d1e4 0c3e 8658 45be c094 6a3c 6fa2 2ebd
00000380: b45d 8f3e e4e9 b73d 0867 05be 8b75 0bbe
00000390: 5c5a 263c 85fb f03c a955 ce3d 28f2 993d
000003a0: 5467 2c3e c362 89bd 8dff 263d e63c 55bc
000003b0: dc88 aa3d a4fa ec3d d55b 4dbe 1a39 b23d
000003c0: 5e04 6c3e 8790 81bc 5b25 25be a792 b4bd
000003d0: a5cd d13d 700d 4abe 99d1 25be 2182 16be
000003e0: 35ef f43d a4ad 513a 833b 01be 2689 12bc
000003f0: 3a33 a8bd bc0d 5bbe 60ce 5b3d 9df5 793d
0.10410213 0.058842853 -0.054287978 0.03956251 0.14736494 0.06833678 0.22897552 0.0843397
-0.14162265 -0.10798007 0.005074842 -0.03294123 -0.04209664 -0.042461343 0.13119987 0.099389076
0.14095603 -0.15018556 0.055433936 -0.019193329 0.050035298 -0.05806875 -0.09863029 0.015975144
-0.030148324 -0.20743977 0.20677352 0.06535811 0.0047814227 0.16372 -0.08760987 -0.07398433
-0.023153154 0.11603763 -0.07914028 0.10187229 0.05176338 -0.120279275 0.03728523 -0.108642645
-0.062274266 0.026047252 -0.008743877 0.12905808 -0.17271739 -0.2609085 0.1328884 0.10743058
0.103411354 -0.08104983 0.034346037 0.06847744 -0.21534908 -0.093047395 -0.06134943 0.121707685
-0.26496947 -0.092442855 -0.15395129 -0.21747147 -0.20354122 0.13160674 0.01636124 0.01784867
-0.016072085 0.0034226866 0.14322348 0.037698727 -0.06695648 -0.0895905 -0.030408243 0.07613131
0.0043086675 0.08314725 0.0020886543 -0.06890809 0.08584233 0.15523393 -0.2530801 -0.0069282744
-0.093956016 0.18238215 -0.10783199 -0.1005358 0.15900998 -0.23322873 0.055061728 0.054622192
-0.010092957 0.04467927 -0.198436 -0.09113935 -0.010091434 0.071416065 -0.06363082 -0.10132544
0.14887327 0.17799023 -0.16250113 0.037905253 0.012117385 -0.14226797 -0.058958463 0.07157245
-0.168033 0.07759463 -0.11425649 -0.014962178 0.111764885 0.071922004 0.16829021 -0.27289665
-0.021316815 0.12020788 0.013709173 -0.063096136 0.15018545 0.0898165 -0.07478222 0.11945105
-0.19936195 -0.18382075 0.2567519 -0.05528444 0.07217213 0.11246822 -0.20143753 0.14802596
0.0035029375 -0.2064981 -0.12100574 0.13867688 0.00329777 0.25163296 -0.08393906 0.040213894
0.024908466 -0.08472954 0.10837079 0.14099431 -0.14577845 0.099262945 -0.11707785 -0.16038975
0.08882714 -0.15068263 0.18516557 -0.036970604 -0.21695548 -0.07885926 -0.024529813 -0.08304196
-0.040224254 -0.07636431 0.18610945 -0.14750127 -0.19403392 0.064541236 0.17816679 0.07398144
-0.1325604 -0.10841396 -0.10996469 -0.021259181 0.1256198 -0.20143595 0.018378085 -0.13189444
0.05388505 -0.16689311 0.035793222 0.03196013 0.2233805 -0.09035498 -0.28385043 0.05236138
0.13470821 0.25064483 -0.2519081 -0.0034159375 -0.15014373 0.19425982 -0.13737655 0.13433038
0.24223144 -0.18289557 -0.1829917 -0.010554175 -0.10948608 0.18486445 0.11687505 0.08428452
-0.08908677 0.10079746 -0.04350035 -0.103198685 -0.10368569 -0.13042809 -0.15554279 -0.018857744
-0.02292969 -0.04698213 0.048626248 -0.17656338 -0.27807915 0.10024051 0.08395035 0.062316068
-0.0504512 -0.014523991 0.032599665 0.048962697 -0.068698004 -0.011104228 -0.09597115 -0.22841893
-0.05060365 0.05601652 -0.16926302 0.06746457 0.13759162 -0.1927205 0.014317691 -0.042635377
0.28001177 0.08980158 -0.13027585 -0.13619058 0.010153379 0.029416809 0.10074932 0.07516891
0.16836292 -0.067082904 0.040771056 -0.013015008 0.08326885 0.115712434 -0.20054562 0.087022975
0.23048541 -0.015815986 -0.16127531 -0.08817034 0.10244302 -0.19731688 -0.16193236 -0.14698078
0.119596876 0.0007998592 -0.12620358 -0.008943832 -0.08212896 -0.21391958 0.05366361 0.06102525

transformer.layers.0.self_attn.in_proj_bias f4 [144]
00000000: 9570 84bd 3021 823d c78e bdbc db50 eabc
00000010: 2df1 303e 3230 0a3d 242e 06bd c787 d3bc
00000020: 6f14 3cbd 88f1 c8bc 9aaf b2ba d91e e6bc
00000030: e8df a6bc b00d 74ba 146e 963d ab37 813d
00000040: 9926 c43c 049b 723c 5b7a 173d 52f5 aa3d
00000050: d2d8 a5bd bd82 29bc 6320 1bbd 8e5c babd
00000060: f0f4 4c3d d437 6fbd bf6b 07bd 9c23 3fbc
00000070: 397c 513c 6ba4 45bd 12c7 143c a672 4a3d
00000080: 813d cabd 1518 8e3d 992b d83d 093a 7fbd
00000090: 3435 e43a b0ed d6bc e121 953d ca9c fabb
000000a0: 1d88 55bd 9ae0 a13d 72e7 a3bd 898d 81bd
000000b0: 5bc0 963d a3b0 863d 2d38 e43c ed31 5fbd
000000c0: 164d 16b6 860b d535 382b afb6 a884 9e36
000000d0: ecd7 41b4 beb6 5fb6 2486 9335 8250 cfb6
000000e0: 2dba aa35 dd4b 4fb6 1f32 2236 2c10 7934
000000f0: 996c b535 102c efb5 f41a 18b6 6787 5736
00000100: 2a43 b7b6 a1e4 cdb6 371a a636 a4f4 b6b6
00000110: dac1 b2b6 2bf9 6936 6f72 8cb6 b095 9d34
00000120: c43f 65b3 dffc 7fb5 5878 bb33 b049 9933
00000130: 9ac5 cb34 df58 5d34 2ead d434 f85d e4b4
00000140: 6602 dd35 8c38 62b4 d796 cd34 fe30 0735
00000150: 2aad 41b3 303a b134 3626 c4b3 21f5 e4b3
00000160: 2ae5 7334 789d 24b4 fd37 1735 0f1a 8035
00000170: 42b3 0db5 5653 1bb5 8c15 ae34 03ea d934
00000180: f9a4 2d3c 3c51 963c a6a0 2f3d 0662 5339
00000190: 4858 24bc 622d fb3c 0f25 1dbc 1a16 d23c
000001a0: 9b3d 663d 1b5a 6f3d 1f89 08bd 503d 3c3d
000001b0: 906d 8f3d 4d28 22bd 3582 9b3b c7bd 88bd
000001c0: b36b 93bd ac7a 82bc 6423 65bc 80ef 20bd
000001d0: 4a8f bf3b b5db 37bc da4e 1f3d 6802 353d
000001e0: 5e51 183d 448c 55bd 86bf 7f3c e8af 70bc
000001f0: 8290 e1bc 66eb 63bd 2394 0eba 375a c2bc
00000200: ca6b 86bc e13b aebd 8912 abbc 5de3 38bc
00000210: faa6 9b3c 321b e4b9 bde0 b83c a7f0 21bd
00000220: 9f0c bf3b d173 da3c 32ef a33c 57ff fcb9
00000230: 7a4d cc3b 3a46 37bc 255f 263b 286f 02bd
-0.06466786 0.06353986 -0.02313937 -0.028603008 0.17279501 0.03373737 -0.032758847 -0.02582158
-0.045917924 -0.024529234 -0.0013632656 -0.028090881 -0.020370439 -0.0009309901 0.073452145 0.06309446
0.023944186 0.014807466 0.03698192 0.083475724 -0.08097996 -0.010346112 -0.037872683 -0.09099685
0.050038278 -0.05840285 -0.03306174 -0.011666205 0.012785965 -0.048252504 0.009080665 0.049425744
-0.09875012 0.06938187 0.105551906 -0.062311206 0.0017410875 -0.026236385 0.072818525 -0.0076480852
-0.05213176 0.079041675 -0.08003129 -0.06325824 0.07360908 0.065766595 0.027858818 -0.054490972
-2.2396612e-06 1.587309e-06 -5.2204377e-06 4.72421e-06 -1.8053078e-07 -3.333596e-06 1.0991394e-06 -6.178453e-06
1.2720171e-06 -3.0889562e-06 2.4169055e-06 2.3195815e-07 1.3517157e-06 -1.7819712e-06 -2.2665454e-06 3.211631e-06
-5.461644e-06 -6.136092e-06 4.9502373e-06 -5.4525026e-06 -5.3273807e-06 3.486474e-06 -4.185647e-06 2.935244e-07
-5.3376212e-08 -9.536288e-07 8.7297565e-08 7.1380214e-08 3.795547e-07 2.061456e-07 3.9614082e-07 -4.253668e-07
1.6466481e-06 -2.1068462e-07 3.8293976e-07 5.036271e-07 -4.5093806e-08 3.3011156e-07 -9.133912e-08 -1.0661666e-07
2.2714508e-07 -1.5330977e-07 5.633336e-07 9.544327e-07 -5.278745e-07 -5.786327e-07 3.2425703e-07 4.0589666e-07
0.010598415 0.018349282 0.042877816 0.00020159045 -0.0100308135 0.030661289 -0.009591355 0.025645304
0.056211095 0.05843554 -0.033333894 0.04595691 0.07003319 -0.039589215 0.0047457465 -0.06676822
-0.07198276 -0.015927635 -0.013985489 -0.039290905 0.005845939 -0.011221816 0.038893558 0.044191748
0.037186973 -0.05213572 0.015609628 -0.014690377 -0.027534727 -0.055644415 -0.0005438944 -0.023724658
-0.01640882 -0.08507515 -0.020882862 -0.011284676 0.019000519 -0.0004350781 0.022568101 -0.039536145
0.005830362 0.026666554 0.020011518 -0.0004825543 0.006234822 -0.011186177 0.00253863 -0.031844288

transformer.layers.0.self_attn.out_proj.weight f4 [48, 48]
00000000: 980a 30bc daac bebd da9f 25be b068 bdbd
00000010: 6784 f1bc 5427 f93d fcad 1a3d 3bc5 813d
00000020: 197c 6f3d 13e3 95bb 88a9 1b3e 7456 25be
00000030: 6201 12be bc57 153d 91b0 493d 7428 a9bd
00000040: e40e e83d 88c7 d23d 007a 573d fc16 6a3d
00000050: ed2f c83d 984d 283e da24 7d3d 16e4 c5bc
00000060: f0fa 80bc 23fe 413e 740f 31bd 92fd 89bd
00000070: a8a6 c93c f121 1fbd 0846 0c3e 6d1e 6abc
00000080: 1641 19be a196 e8ba c136 48be 6f34 e6bd
00000090: 54fe 13be 4261 4a3e 48bd b9bd c75b 87bd
000000a0: 2353 043e 02be 8e3d c255 bbbd d1c4 9cbd
000000b0: 4bee bb3c dde2 ac3c 362d 80bc e2da 473d
000000c0: b259 60bd 7be3 b7bd fb1a 823c cef0 0fbe
000000d0: d468 12bc e0a9 f43b 950d 0abe 9ac8 ab3c
000000e0: 5de7 533d b905 533e 972e e8bd b686 8d3d
000000f0: a7a6 9bbd 0fcf 5cbe d5da e33d a9d2 b9bc
00000100: a9ba 923c 2266 493e af55 92ba 6455 fdbc
00000110: ff81 efbd d0fe 923d 3539 14bd ef23 513d
00000120: 5e45 ca3d 0791 193d a7b9 c33c a211 663b
00000130: 9174 e73d a761 c93d 79d7 80bd 08bd 6dbc
00000140: 7b3a 813d ac87 5bbd 4c47 7ebd 4432 92bc
00000150: e368 103e c10f 4a3d c185 983d fad4 0bbd
00000160: daeb 2d3d 661a 5f3d 55a8 45bc cd5b 523c
00000170: 727d 20bd c969 c7bd 818c 17be eaa6 98bc
00000180: efa6 2dbd eaa2 bdbd 9b32 38bd edd5 143d
00000190: 7c19 973c 91be 363b fc77 1f3e 31ae 16be
000001a0: 1042 29bc d48a f73d 7c9e a9bd 5868 0a3e
000001b0: 0a65 3abe 9b6e 2e3e 2dfb 18be 51c5 033e
000001c0: c686 cf3d 24bc 8a3d c107 14bd bc60 ed3d
000001d0: 780b e23d 1d2e 883c d357 21be 141a dc3d
000001e0: f009 4cbc 59fc 9f3d fd20 9cbc 2378 513e
000001f0: 03b4 0abe 4199 bbbd f4ff 88bc ee33 e23b
00000200: dc67 953d 1a8e 8cbd 76d2 ce3d b1ff 02bd
00000210: 3395 1dbd 585e a8bc d46f df3c 665f c4bc
00000220: 191f 8a3d 759a 9c3d ba42 ce3d 812a adbd
00000230: 72c6 d63d 6604 c7bd c359 ce3c 7521 ee3d
00000240: 1ebf 183e e376 6dbd 1379 8a3d 6fea 4cbd
00000250: 470b b93d 856e 04be 3065 f43c 4f13 55be
00000260: cf47 4d3d 67d7 6abe 76cb 0f3e 846b dabd
00000270: 486a bdbd 3274 343e 02b7 733d 4d79 7cbc
00000280: 2d01 4a3e 0e37 ecbc 47bf bd3a aad7 173e
00000290: 39bb 99bc 453e cabd 7946 b1bc 2848 ff39
000002a0: 4c9d aabd 56d4 2bbe 0a46 a9bc 4996 c43d
000002b0: ae07 67be 131e 1dbc 65e2 be3d d1cc 83bc
000002c0: a21e fb3c c11a 083e 2ea6 24be 04d8 9cbb
000002d0: c715 b5bd aac0 2e3d 37bb f13c 4508 a73d
000002e0: 10ce eebd 124b fcbd be39 c83b 54bd 813c
000002f0: 69d5 2c3e da82 9bbd 3ffa fa3c fcab 043e
00000300: 52c4 153d e9c4 a1bd 76ab 683d ab4c 7b3d
00000310: 78dc 223e 55a2 e8bd 6e69 9dbd 4789 e5bd
00000320: 06b9 bc3d 8f23 c23d dd98 e5bd e9dc d93d
00000330: 2077 0e3e 3daf eebd 12b1 05bc 94f1 193d
00000340: 893b ad3c 4077 863d e587 813d 19b3 f13c
00000350: 3828 cabd 4a47 043c fc7f e83d 9edf db3c
00000360: 837c 253e 3a62 72bd e45d 5c3e 97ef 91ba
00000370: 1660 fb3b 30f1 55bd 8237 733d c4ea 053b
00000380: 17b3 973d 881a 9cbc a071 e3bd bcd6 573d
00000390: 53c4 bf3d c135 16be 2cee 68bd 0b81 903b
000003a0: 1cb9 3b3a bf42 09be 0670 cbbd d492 9fbc
000003b0: dede 54be 0fa7 d2bd 00e6 db3c 1045 793d
000003c0: add8 4ebc 7e15 55bb 1705 3e3e 773f dcbd
000003d0: 6f6d 8a3d ef02 3f3d da04 10bd afcc 6dbd
000003e0: 0671 f13d 8fdf 0a3e b57f 28be 0ecf 853d
000003f0: 821b 9fbd e5af a4bd a2dc 2dbd 8b6e c3bd
-0.010744713 -0.093103126 -0.1617426 -0.09248483 -0.02948208 0.12165704 0.03776358 0.06336447
0.058467958 -0.0045741885 0.1520139 -0.1614626 -0.1425834 0.036460623 0.049240652 -0.08259669
0.11330965 0.10291964 0.052606583 0.057150826 0.09774766 0.1643585 0.061802723 -0.024156611
-0.015744656 0.18944602 -0.043227628 -0.06737818 0.0246156 -0.03885073 0.1369859 -0.014289481
-0.14966235 -0.0017745086 -0.19552137 -0.1124047 -0.14452487 0.19763663 -0.09069306 -0.06609302
0.12922339 0.06969835 -0.091472164 -0.07654727 0.022940775 0.02110427 -0.015646558 0.048792727
-0.05477304 -0.08978935 0.015882006 -0.14056703 -0.008936126 0.0074665397 -0.13481744 0.020969678
0.051734317 0.20607652 -0.11337011 0.0691046 -0.07600146 -0.21563362 0.11125723 -0.022683458
0.017911272 0.19667867 -0.0011164452 -0.030924506 -0.11694717 0.07177508 -0.03618737 0.05105966
0.09876512 0.037491824 0.023892237 0.0035105725 0.1130153 0.09833079 -0.06291098 -0.014510401
0.063099824 -0.053596184 -0.062079713 -0.017846234 0.14102511 0.04933143 0.074473865 -0.034138657
0.042461254 0.054468535 -0.012064059 0.01283927 -0.039182134 -0.09736974 -0.14799692 -0.018634278
-0.04239553 -0.09259589 -0.044970136 0.036336828 0.01844477 0.0027884583 0.15573114 -0.14714886
-0.010330692 0.12087026 -0.082821816 0.13516366 -0.18202606 0.1703438 -0.14939566 0.12868239
0.10133128 0.06774166 -0.036140207 0.11590716 0.11037344 0.016623551 -0.15756159 0.107471615
-0.012453541 0.07811803 -0.019058699 0.20455985 -0.13545232 -0.0916009 -0.01672361 0.006903163
0.072952 -0.06863041 0.10098736 -0.031982128 -0.038472366 -0.0205528 0.027275003 -0.02397127
0.06744213 0.07646648 0.10071321 -0.084553726 0.10487069 -0.09717636 0.025189286 0.11627475
0.14916655 -0.057974707 0.06761374 -0.05002826 0.09035354 -0.12932785 0.029833406 -0.20808147
0.05011731 -0.22933732 0.14042458 -0.10665038 -0.09248787 0.1762245 0.0595007 -0.01540978
0.19727011 -0.028834846 0.0014476561 0.14828363 -0.018766033 -0.09875158 -0.02164005 0.0004869115
-0.08330783 -0.16780218 -0.02066328 0.09598977 -0.22561523 -0.00958969 0.09320525 -0.016088875
0.030654255 0.13291456 -0.16079018 -0.0047864933 -0.08842044 0.042664208 0.029508216 0.08155874
-0.11660397 -0.12319006 0.006110399 0.015837349 0.16878285 -0.07593317 0.030636905 0.12956232
0.03656418 -0.07898886 0.056804143 0.061352413 0.15904415 -0.113590874 -0.07686125 -0.11207824
0.09214978 0.094794385 -0.11210797 0.106378384 0.1391263 -0.11654518 -0.008159893 0.037583902
0.021146553 0.06565714 0.06324748 0.029504346 -0.09870952 0.008073637 0.11352536 0.026840027
0.16160779 -0.059175707 0.21520191 -0.0011134025 0.0076713664 -0.052231967 0.05937911 0.002043412
0.074072056 -0.01905562 -0.111056566 0.05269502 0.09363618 -0.14668943 -0.056867763 0.0044099144
0.00071610673 -0.13404368 -0.09933476 -0.019479193 -0.20788142 -0.1028577 0.026843071 0.06085688
-0.012624902 -0.003251403 0.18556629 -0.107542925 0.06759154 0.046633657 -0.035160877 -0.05805653
0.11789136 0.13561843 -0.16454966 0.06533633 -0.077689186 -0.08041362 -0.04244674 -0.09542569

transformer.layers.0.self_attn.out_proj.bias f4 [48]
00000000: 277a 34bd 5589 ed3c e54d b7bc 80e3 8dbd
00000010: bea2 ed3b 1af6 203d 794c 8d3d 4166 ad3c
00000020: 7ec9 10bd 8ae6 5ebd c17e 28bd 7cee b13c
00000030: 01d8 1b3c bfb7 593d 624e 72bd 9945 203d
00000040: a8a3 f4bc e317 d4bc 9d79 883d b68f 30bc
00000050: 2772 003e a443 04bc d2fb ca3d d792 e93b
00000060: a1f8 36bc ea78 6bbd 5eab 83bc a514 7fbd
00000070: 37ab 3fbc 7a0c f43c eb0e 8fbd 2cf1 78bd
00000080: 2799 073d d14a e63d 776a bbbb 181d 32bc
00000090: aee9 263d 3a04 1bbb f076 5ebd 08e5 3dbd
000000a0: 25d0 803d 46ef 313d 6916 9e3a e7a2 15bd
000000b0: 1136 e03c 07e6 073d 7557 c1bb d9bf 4e3d
-0.044061806 0.02899615 -0.02237601 -0.06928158 0.0072520664 0.0392972 0.068993516 0.021166923
-0.035348408 -0.054419078 -0.041136507 0.021720164 0.009511949 0.05315375 -0.059156783 0.039128873
-0.029863194 -0.025890296 0.06663821 -0.010776451 0.12543546 -0.008072767 0.09911312 0.0071281004
-0.011167676 -0.05748836 -0.016072925 -0.062275548 -0.011698536 0.029791106 -0.06985267 -0.060776874
0.03310504 0.11244739 -0.0057194787 -0.010871194 0.040750198 -0.0023653642 -0.054312646 -0.046361
0.062897004 0.04344108 0.0012061122 -0.03653231 0.02736953 0.033178356 -0.0059003183 0.05047593

transformer.layers.0.linear1.weight f4 [128, 48]
00000000: 3d9c 213e 3a8f 15be b24a 1ebe 3b94 25be
00000010: 6a16 15bd 4ae5 02be 0650 94bd c5de 04be
00000020: 2334 03bd aaee 73bd b91e 823d c14b 02be
00000030: 67bd 113e 9bc7 6c3d 9bc8 afbd 761f 0c3d
00000040: 58f3 02bd e12f 16be bf2c 143e 4c5e 05bd
00000050: 565c fb3c edbe 543b 17da 6fbd 44b3 37be
00000060: f027 843d 82e3 313d 85a6 083e 77b5 59be
00000070: 2b62 f33d 0f05 65bc 5f52 94bc 4142 f6bc
00000080: 15e3 b1bc dc50 093e 4f3d 803d 469a e9bd
00000090: 7f28 5bbc bfd3 d23d 7436 d9bd df8f d13d
000000a0: ced4 0a3e 08ab 71bd 01b6 393d 5258 2d3c
000000b0: b315 8b3d 4753 36be fe8a 013d b5ce b73c
000000c0: 11d6 fc3c 03e3 793d 4f4d 02be ed85 c73d
000000d0: 939c d6bd d697 1dbe 39e3 82bd b2eb 97bd
000000e0: b21d a6bd 4913 2c3e 8fea eabd fda8 cfbd
000000f0: 64b0 df3d 6f1e ebbb 9449 e1bb 0acb e2ba
00000100: 0ba9 933c d771 e03d f6eb fabc e535 cdbc
00000110: 0000 f4bc 26e0 cebd 05b5 073e b91a 0fbe
00000120: 7564 95bd 46b8 403d e312 b93c 1546 ba3d
00000130: 35f4 bf3d a738 6dbd 93a4 6abe fbb4 a83d
00000140: 6e31 b53d 8357 b93b 25d6 063c 92fd f4bc
00000150: 5027 42be 9cda 1c3e 63fc bdbd f66c 813d
00000160: 33a7 8fbd 0bcc 38be ee35 b43d 87d1 493d
00000170: d8d2 54be 724b 923d fad5 09be dac7 b83d
00000180: 7f8c a03c 6c99 853c 2fd4 743d 5b93 333e
00000190: 8938 d0bd 73b5 a83d 6052 45bd 9150 9f3c
000001a0: b811 19bb 35ab 8e3d b268 a5bd a0cf 3abd
000001b0: 5268 ef3b 8203 2a3d 340f f6bc d191 72bd
000001c0: 9072 e3bc 0a87 443d 3883 dabd 091b 93bc
000001d0: 07f1 1abe ebeb 293d d74f 08be c274 223d
000001e0: d623 9d3b 5563 b43d 9ce0 e23c cfea c13d
000001f0: 313e 3dbd e2bc 513c ec1c 6ebd 16a3 b63d
00000200: 1718 143d 9931 59bd a47c d03c 95f4 1d3b
00000210: 5884 d3bd 5975 e1bd f4d5 9c3c 46ae cf3d
00000220: 77dd 08be 8a6a 6cbc 1335 afbd f51e d2bc
00000230: 3493 19be 9b2d e5bd 0997 7abd 119e d03d
00000240: 5727 8fbd b085 19be 1578 903d ae92 963b
00000250: 6bf1 073d 53bb 8a3c 3291 48bd 6475 423e
00000260: 2a16 943d 1155 79bd de1b 7fbd 9c81 b1bd
00000270: f370 143e 44ab c8bd 3b7f 273c ecea 82bc
00000280: a8f8 2ebe ced2 4bbc 9b32 4abe 63c5 313d
00000290: c6b1 783d 804c acbc 7c20 1ebd ec62 8e3d
000002a0: de97 2a3e 2749 113e 4b46 e63c cc77 4abd
000002b0: 03a8 3e3d 82ea 3a3d 04d2 8f3d 35ec 17be
000002c0: 89dd bbbd b60c 31bc 178c e83d 3b8c c9bc
000002d0: 2d41 a6bd 39b4 c83d eacd 143e e7d0 a6bd
000002e0: 0135 26bd 367e eabd 8eb2 a0bd a40b c83d
000002f0: 1317 df3b aa1d 023e 09b1 ff3d 2b61 783d
00000300: 2755 373d 2fe8 cbbd 3c31 77bd eb6a c0bd
00000310: 732f 83bd 5c77 a9bd fc72 d23d 135d 91bd
00000320: 1c51 4e3d 4f9a a7bd 2a60 2e3e 510a b33c
00000330: 93f8 993d 358e 043d 1107 92bd 96a0 55bd
00000340: 64e2 653e a509 93bc 1470 72bc 613a 0ebd
00000350: 0161 e7bd 4bdb 923d e04a 5dbd 797d 1cbd
00000360: 615b 06ba 89e1 3f3c 06ec aebd a2b6 19bd
00000370: ce42 cc3c 3b29 0f3b e255 2e3d 118e 03bd
00000380: b6b6 c4bd 15d2 15ba d98f 22bd 060b 483d
00000390: cc35 64bd a06f b8bd d671 04bc b90f ef3c
000003a0: 6d2b 383e 060b e8bd 071c 83bd 0dcf 9ebd
000003b0: 64c1 4bbd 963b dbbd fe95 6a3d 4a63 b53d
000003c0: 6e4d 63bd b42e cc3d 27a1 d5bd 2c72 48bd
000003d0: ee64 913d 3ef0 6dbd 3804 023b b77c 4dbd
000003e0: 58f3 43be c32e 8bbc f7b4 f3bd 10c8 0cbe
000003f0: 488c 31bd 3dd0 cabd 9f24 313e 9001 aebd
0.15782256 -0.14605418 -0.15458182 -0.16169827 -0.03639833 -0.1278278 -0.07241826 -0.12975605
-0.032032143 -0.05955378 0.06353516 -0.1272421 0.14232408 0.057807546 -0.08583184 0.03420969
-0.031970352 -0.14666702 0.14470194 -0.03256063 0.030683678 0.0032462433 -0.058557596 -0.17939478
0.0645293 0.04342986 0.13344772 -0.2126063 0.118839584 -0.013978257 -0.018105684 -0.03006089
-0.021714726 0.13409752 0.06261694 -0.114063784 -0.013376354 0.102942936 -0.10606089 0.10232519
0.13557741 -0.059001 0.045339588 0.010580139 0.06791248 -0.17805205 0.031626694 0.022437433
0.030863794 0.06100751 -0.12724803 0.09742341 -0.10479083 -0.15389952 -0.063909955 -0.07418002
-0.08111133 0.16804232 -0.1147052 -0.10139654 0.10922316 -0.007175259 -0.0068752263 -0.0017302942
0.018024942 0.10959213 -0.030630093 -0.025050113 -0.029785156 -0.10101347 0.13252647 -0.13975038
-0.07294551 0.047050737 0.022592014 0.09095398 0.09372751 -0.057915356 -0.22914343 0.08237644
0.088473186 0.005656184 0.008229767 -0.029906068 -0.18960309 0.15317768 -0.092766546 0.06319611
-0.070143126 -0.18046586 0.08799349 0.049272086 -0.20783556 0.07143296 -0.13460532 0.09022494
0.019598244 0.016308509 0.059772667 0.1753668 -0.10167033 0.08237734 -0.048174262 0.019447597
-0.0023356508 0.06966249 -0.0807661 -0.045608163 0.007306137 0.04150725 -0.030036546 -0.059221093
-0.027764589 0.047980346 -0.10669559 -0.017957227 -0.15131007 0.041484755 -0.13311706 0.03966213
0.0047955317 0.088080086 0.027694993 0.09468614 -0.04620189 0.012801381 -0.05813305 0.08917825
0.036155786 -0.053025816 0.025450058 0.002410208 -0.10327977 -0.110087104 0.01914499 0.10140662
-0.13365732 -0.014429698 -0.08555045 -0.025649527 -0.1499756 -0.11190339 -0.061179195 0.10186399
-0.06989925 -0.14992404 0.07054154 0.0045951223 0.03318922 0.016935026 -0.048966594 0.18990093
0.0723079 -0.06087214 -0.062282436 -0.08667299 0.14496212 -0.09798291 0.010223205 -0.01598116
-0.17087042 -0.0124403965 -0.19745867 0.043401133 0.060716413 -0.021032572 -0.0386052 0.069524616
0.16659495 0.14188062 0.02810969 -0.049430653 0.046546947 0.0456338 0.07022479 -0.148362
-0.09173114 -0.010806253 0.11354845 -0.024603 -0.081179 0.098 0.14531675 -0.08145314
-0.040577892 -0.11449854 -0.078465566 0.09767845 0.0068081706 0.12706628 0.12484939 0.06063954
0.044758942 -0.09956395 -0.060349688 -0.09395393 -0.064055346 -0.08274719 0.10275838 -0.070978306
0.05037032 -0.08183729 0.17028871 0.021855505 0.07518115 0.03236218 -0.07130254 -0.0521551
0.22449642 -0.017948935 -0.014797229 -0.034723643 -0.11297799 0.07170733 -0.054026484 -0.038205598
-0.0005125311 0.011711487 -0.08541112 -0.037527688 0.024934199 0.0021844644 0.042562373 -0.032117907
-0.09605162 -0.00057152036 -0.039687965 0.048838638 -0.055715367 -0.09005666 -0.008083781 0.029182302
0.17985316 -0.113302276 -0.0640183 -0.077543356 -0.04974498 -0.107047245 0.05727195 0.088568285
-0.055493765 0.099698454 -0.10431128 -0.048937008 0.07099329 -0.05809044 0.001983894 -0.050167765
-0.19135797 -0.016990071 -0.11899751 -0.13748193 -0.043346673 -0.099029996 0.17299126 -0.08496392

transformer.layers.0.linear1.bias f4 [128]
00000000: d6eb b6bd df1c 9c3d 7fb0 e53c 9c74 9d3c
00000010: aa13 51be b301 57bd 6ef3 973c 22e1 e8bc
00000020: 6f68 bfbd 1935 143d 8c08 87bd 105f e3bc
00000030: bae8 45be 9692 a93d 6be8 c03a 9d2a a83d
00000040: 9f5d 16bd 6bd5 a7bd ef4f c0bb 9f18 0dbe
00000050: e3a2 64bd 2afe 98bd eb14 babd 4af2 92bd
00000060: 8599 03be b030 ea3d 9fc3 233e 8706 f33d
00000070: c5d6 3c3e 17e5 8abd c9ec 9bbc f311 84bc
00000080: b955 e33d 3168 f43c 3958 4e3d 47c7 3e3c
00000090: 3542 4c3d f7f0 913d c46f 22bd 17e2 fcbd
000000a0: 188a 583d 1003 093e ae5a 25be e777 46bd
000000b0: 0120 f0bc c982 833d fcb5 93bd be2c 973d
000000c0: f690 8fbd 5c25 eabc 4bed 2c3d c871 b53d
000000d0: fd10 3ebe 3459 ea3c 19c5 e63d d0a2 9b3d
000000e0: 834d a4bd f378 a8bd cfa3 1f3d 00b1 e63d
000000f0: c6ea d0bc bd65 e03d 2141 003e 5c7c e23d
00000100: c721 383e 41a9 e63d 2ef3 143d 86b5 4d3c
00000110: 3c46 9c3b bb2a 91bd 025d d23d 63df 823c
00000120: 4f78 fdbd ee79 26bd b889 183d 3d79 7ebd
00000130: e2cf a2bc cc49 bd3c 034e f9bd afe1 efbc
00000140: b2c2 0f3d 2c10 a1bd 5983 97bd e3e0 123e
00000150: dbf3 d23d dcdc 9f3d 74ae 29bb 34f9 44bd
00000160: 431a 853c 8554 dc3c de36 babd 2136 f0bd
00000170: fd80 c03d 14ae 673d feee afbd 3f44 ae3d
00000180: 7ca8 773e c137 96bb 01e2 903d e8f6 7f3d
00000190: 9efb b33d f1cf 13bd 88dc dd3c 5fd8 63bd
000001a0: 787e 263e 84cb b2bd cbcf 9cbd 5b70 013e
000001b0: 07b0 8fbd 124c 513d 361c 65bb 8833 1dbe
000001c0: f128 1f3e 6624 6e3d 5dd0 17be 8c6a 203e
000001d0: 8768 11bd 5b77 323d a859 333e ae98 44be
000001e0: 3a48 3fbd bd58 b7bd 69a1 1c3d 32d8 933d
000001f0: fffd ec3c 664e 853d d899 8c3d 09b8 84bd
-0.08931701 0.07622694 0.028038261 0.019220643 -0.20417657 -0.052491855 0.018548694 -0.028427664
-0.09346091 0.03618345 -0.06593427 -0.02775529 -0.1932706 0.08279912 0.0014717703 0.08211253
-0.036710378 -0.08195003 -0.005868904 -0.13778923 -0.055819403 -0.07470353 -0.09086021 -0.07175119
-0.12851532 0.11435068 0.15992592 0.11866479 0.18441303 -0.06781977 -0.019033806 -0.01612184
0.11100335 0.029834839 0.050377104 0.011644191 0.049867827 0.071260385 -0.03965737 -0.12347811
0.05286607 0.13380075 -0.16147873 -0.04845419 -0.029312136 0.0642143 -0.07212445 0.07381581
-0.07010071 -0.028582267 0.042218488 0.08859593 -0.18561168 0.028606988 0.11268062 0.075994134
-0.08022597 -0.08226194 0.03897458 0.11264229 -0.025502574 0.10956905 0.12524845 0.11058876
0.17981635 0.11262751 0.036364727 0.012555486 0.004769115 -0.07088228 0.10271646 0.01597566
-0.12376463 -0.040643625 0.037240714 -0.06212734 -0.019874517 0.023106478 -0.12173083 -0.029282419
0.035097785 -0.07864413 -0.073980995 0.143436 0.10300418 0.078057975 -0.0025891336 -0.04808922
0.016247874 0.02689577 -0.09092496 -0.11729074 0.093996026 0.0565625 -0.08590506 0.08509111
0.24185365 -0.004584283 0.07074357 0.062491328 0.087882265 -0.03608698 0.027082697 -0.05562627
0.16259181 -0.08730224 -0.07656821 0.12640516 -0.070159964 0.051097937 -0.0034959442 -0.15351689
0.15542962 0.05814018 -0.14825578 0.15665644 -0.035500076 0.043570857 0.1751467 -0.19198868
-0.04669974 -0.08952472 0.03823987 0.0721897 0.028929709 0.06509094 0.06865281 -0.064804144

transformer.layers.0.linear2.weight f4 [48, 128]
00000000: d866 c1bd ff67 5b3b d7e7 4c3d e067 6bbd
00000010: d542 1dbc e0fb f6bd 158b 1bbc 7442 64bd
00000020: 6c16 bf3d 469e 923d e7d4 d63c 398c 64bc
00000030: 8357 483d 1857 c63c 3be5 713c 7a10 a13d
00000040: 26a2 b0bd 706e 00be e961 a83d 80e4 253d
00000050: ee10 333d e0e0 8ebd 8cdb 10be deed 673d
00000060: 4866 563d a676 0ebd bb9f b2bc 0311 23bd
00000070: d556 46bd aca3 15ba c08b 1d3d 2d52 c1bd
00000080: 937b c93d de90 933c 4f58 f53c cf4c c23c
00000090: 4d76 83bd 445d d0bd 777b 61bd c9ae 7abc
000000a0: fad6 95bd 3d9e 9dbc 79bb 4abc 9c51 1bbb
000000b0: a324 7b3d 86fc 633d 49d8 59bd 110e 96bd
000000c0: 3258 983c 29b3 353d e9c3 0fbc fcdf 86bd
000000d0: ef82 42bc 0dc3 913d bf96 023d 1a4e 83bd
000000e0: 4967 13be cbc9 86bb 4369 973c 97af 19bd
000000f0: 1124 96bb 696b fdbc ede5 623d 7b37 5bbc
00000100: 94d0 81bd 3d79 4cbb f6d5 60ba c77f 76bd
00000110: 22bd cd3c 3463 cebb 14d6 2e3d 9802 8dbb
00000120: acfe af3c 0759 9abc 08b7 913c ec30 9bbd
00000130: c9d9 09be 7b5b efbd 1ab1 1a3c f9ac 133c
00000140: 66a8 57bc 3b0a 10bd 9db8 303c aaed d83c
00000150: 974a 3f3d 7403 a73d c30d 57bc 8ba4 f43c
00000160: a9df 153b 9261 e8bd 596a fdbc e347 513d
00000170: 958d 9bbd e136 61bd c7af 273c f8d6 e43b
00000180: f5d3 ab3c 56d0 28bd b18d 5cbd 7ddf 7dbd
00000190: c905 13be 9100 a8bc 9257 02be cdf0 60bc
000001a0: 2da1 6eba 83be ffbd 8491 4abc 59ca a2bd
000001b0: b1e9 0bbd ec59 efbc cb53 1e3d 237e bb3d
000001c0: a861 74bc 6ee8 533d ce34 5ebd 07a6 a53d
000001d0: b1a4 a5bd 66d0 1b3a 52ea a83b ff4a 73bc
000001e0: 2d90 54bd 488f 00bd 4ba0 703d 63d0 363d
000001f0: 7a31 833d f6d7 c1bd f33c ee3c 6b67 333d
00000200: bb93 673d 65cf bc3d 6bb9 a53d 4116 a33d
00000210: b0f8 ffbc b17f 6a3d c30e 413d eeba b93c
00000220: 0bec 6bbd 6048 9dbc e0dd 883c 0bc9 73bd
00000230: b46b 913d 3441 85bd bbd3 5bbd 9fdf c0bb
00000240: cfcf 133c 4bfd 92bb 78c3 513d c96e ddbc
00000250: 1c7f 29bb 3544 d23d 3d4d a43d b6c5 9fbc
00000260: 89dd c1bd f11a 7e3b f8bb cfbc a3b4 e53c
00000270: 8584 673d cc65 1ebc 1740 a53d 91b3 dfbd
00000280: 030d dabc 12b9 853d 59e4 61bd 50e3 6d3c
00000290: b98d 913c a32b 3a3d 48ef b0bc 7ae2 fe3d
000002a0: 7207 92ba 2260 99bc 1ef2 adbd 53e5 943c
000002b0: a2c1 5f3d b977 be3c 230f 88bc 5f78 f1bb
000002c0: 3741 563d 9667 923d b682 3b3d b0be a13c
000002d0: 2cd9 5a3c 808d 67bb d319 503d 1fb7 183d
000002e0: 3a8f 63bd 0801 18bc 6899 3d3d 8429 b73d
000002f0: e985 5abd 931d d0b9 384f 7d3b 633d 1bbd
00000300: f91c 59bd 2530 2ebd 53bd bc3d 02c2 143d
00000310: b212 96bb 215b 0abd a427 eb3d bf62 963d
00000320: 5c6c 0d3e f059 1ebd bac0 943d 6b0e 943d
00000330: 4b6b 03bd fb1c ca3b db1e 6a3d 3a73 51bd
00000340: 4817 e53d d4fa e8bc 4006 e2bc b9b0 143c
00000350: 9e2d 663d 6111 ac3c 65e5 04bd cc11 163d
00000360: 7ef6 ee3b 9a43 47bc 8f52 30bd 1de1 7f3d
00000370: 0af3 243d 461e 93bd a535 eabb 065f 8bbd
00000380: 807d 7a3d 31f2 e53c d2fd cabc 27ac 6d3c
00000390: 5a2f acbd 9da1 5fbc d9a2 9f3d 197e 763d
000003a0: 93d2 bc3d 6912 a33b 7138 ac3d f501 fb3d
000003b0: d392 f8bc 14b9 8d3d a8fb 083d 2668 283d
000003c0: 7cb7 c93d b90a e4bc 17f4 893d a8dc d53d
000003d0: 5259 cebc e8ba ca3d f09b 103e 6e42 a6bd
000003e0: fe40 69bd 04d6 01bd b9b7 59bd 2a07 833d
000003f0: e547 23bc 8f42 2f3b 1e86 b0bd 583d 6f3c
-0.09443444 0.0033478735 0.050025787 -0.05747211 -0.0095984535 -0.1205976 -0.009493609 -0.055727437
0.093304485 0.071590945 0.026224567 -0.013949447 0.048911583 0.024211451 0.014764125 0.07864471
-0.08624677 -0.12542129 0.082218 0.040501118 0.043717317 -0.06976485 -0.1414625 0.056623332
0.052343637 -0.03478112 -0.021804681 -0.039811146 -0.048422653 -0.0005708288 0.038463354 -0.09439502
0.09838023 0.018013414 0.029949335 0.023718266 -0.064190485 -0.10174039 -0.055049386 -0.015300461
-0.07316394 -0.019240493 -0.0123737985 -0.0023699766 0.061314236 0.055660747 -0.05318478 -0.07326902
0.018596742 0.044360314 -0.008774736 -0.065856904 -0.011872037 0.07117281 0.031882044 -0.06411381
-0.14394869 -0.004113411 0.01848281 -0.03752097 -0.004581936 -0.030935006 0.055395056 -0.013379927
-0.06338611 -0.0031200193 -0.00085768045 -0.06018045 0.0251146 -0.006298447 0.04268463 -0.0043032877
0.021483742 -0.01884128 0.017787471 -0.075776905 -0.13461985 -0.116873704 0.009441638 0.009013408
-0.013162708 -0.035166007 0.010786203 0.026480515 0.046701994 0.081549555 -0.01312584 0.029863616
0.0022868908 -0.11346735 -0.0309345 0.051093947 -0.07595364 -0.054983977 0.01023478 0.006983634
0.020975092 -0.04121431 -0.053846065 -0.061980713 -0.14357676 -0.020508083 -0.12728718 -0.013729286
-0.00091029966 -0.12487509 -0.012363795 -0.07948751 -0.034158412 -0.029217683 0.03865413 0.09154918
-0.014915861 0.051735334 -0.054249577 0.08088308 -0.08088053 0.00059438345 0.0051548863 -0.014849423
-0.05189531 -0.031386644 0.058746617 0.044632327 0.06405921 -0.094650194 0.029081797 0.0437998
0.05653737 0.09219245 0.08092006 0.07963229 -0.031246513 0.057250682 0.04713322 0.022672143
-0.057598155 -0.01919955 0.01670736 -0.0595179 0.07100621 -0.06506577 -0.05366872 -0.0058860327
0.009021713 -0.0044857613 0.051211804 -0.027030366 -0.0025863117 0.10266916 0.080225445 -0.019503456
-0.094660826 0.0038773383 -0.025358185 0.028040236 0.056522865 -0.009667825 0.08068865 -0.109229214
-0.026617533 0.0652944 -0.05514941 0.014519528 0.017767774 0.04545177 -0.021598473 0.12445541
-0.0011141135 -0.018722598 -0.08493446 0.018175757 0.054628022 0.023250448 -0.01660878 -0.0073690857
0.052308287 0.07148664 0.045778953 0.019744247 0.013357442 -0.0035332143 0.050805878 0.037284013
-0.055556513 -0.00927759 0.046288878 0.08943465 -0.053350363 -0.00039694886 0.0038651954 -0.03790034
-0.053006146 -0.042526383 0.09215798 0.036317833 -0.0045798654 -0.033778314 0.1148217 0.07343053
0.13810867 -0.03865999 0.07263322 0.072293125 -0.032084744 0.0061680055 0.057158332 -0.05113528
0.11186081 -0.028439917 -0.02759087 0.009075337 0.056195848 0.02100438 -0.03244533 0.036638066
0.0072925678 -0.012162114 -0.043047484 0.062470544 0.040270843 -0.071835086 -0.007147508 -0.06805234
0.061154842 0.028069587 -0.024779234 0.014506376 -0.08407469 -0.013649371 0.077947326 0.06017885
0.09219851 0.00497656 0.08409203 0.12256233 -0.030343449 0.069200665 0.033443123 0.04111495
0.0984945 -0.027837144 0.067360096 0.104424775 -0.025189076 0.09898931 0.14121985 -0.08118139
-0.056946747 -0.03169824 -0.053153727 0.06397851 -0.009965871 0.0026742553 -0.08619331 0.014602028

transformer.layers.0.linear2.bias f4 [48]
00000000: 6ff6 1bbd d71f 0a3d ede1 f7bd 1a67 3ebd
00000010: 43c5 de3c ea63 403d 6e03 21bc 1973 6fbd
00000020: c423 cebd 3ad3 6fbb ce69 52bc 58f4 55bc
00000030: 68f9 e63c e034 583d acf5 95bd 00d3 7e3c
00000040: 4ffe 923b 1c13 c9bc b8cc c13d a6a7 62bd
00000050: 3152 333e 5c55 f1bb 74eb 153e d5c5 fa3c
00000060: b55c 99bd 7abb edbc 923e 843d e224 e93c
00000070: e60c 833d b951 adbb 385d 37ba 9c6e 9a3c
00000080: 20a3 a53d 84e4 513e 522b 803d 04f5 26be
00000090: 5e11 923d 18c2 5dbd fdb6 1fbd 5adf ccbd
000000a0: ab93 883c 34fe a43d e32a 8abd 8d84 d03c
000000b0: 6d66 a03c ad36 c6bc fccd b5bd 1a1d b53d
-0.038076814 0.03372177 -0.12103639 -0.046485044 0.027193671 0.046970285 -0.009827478 -0.058459375
-0.100654155 -0.0036594407 -0.012842609 -0.013058744 0.028195098 0.0527848 -0.07322249 0.015553236
0.0044858824 -0.024545245 0.09462875 -0.055335663 0.17511822 -0.007364912 0.146406 0.030611912
-0.074883856 -0.02902006 0.06457247 0.02845997 0.063989446 -0.005289283 -0.00069947867 0.01885157
0.08087754 0.20497328 0.06258263 -0.16304404 0.07132219 -0.05414018 -0.03899287 -0.100035384
0.016671976 0.08056298 -0.06746461 0.02545383 0.01958009 -0.024195993 -0.08877179 0.08843441

transformer.layers.0.norm1.weight f4 [48]
00000000: 2dd7 6c3f a6d0 6e3f 8019 7a3f cec5 883f
00000010: 3049 803f b3c5 673f f09b 833f 3083 603f
00000020: 2a88 8c3f 74c5 7c3f 7b76 7d3f babe 813f
00000030: 3bc3 773f 8151 713f d6b1 7f3f 7699 833f
00000040: da24 7d3f 2d70 7e3f 65d8 763f bd22 623f
00000050: db72 863f cd91 6d3f db40 753f d8cf 633f
00000060: f3db 7f3f 92e4 863f bb45 703f 1d27 8a3f
00000070: ed90 6f3f c94d 863f 91f0 633f 56b6 6f3f
00000080: 066e 693f fcdf 893f 938f 6f3f 9640 803f
00000090: 5e83 863f 9228 783f 05ec 853f c7af 7c3f
000000a0: 89fd 723f 44c4 7a3f 518a 773f e584 773f
000000b0: 054f 7a3f 9d16 7f3f 81db 833f 4e15 7a3f
0.9251583 0.9328712 0.9769516 1.0685365 1.0022335 0.9053604 1.0281963 0.87700176
1.0979054 0.9873879 0.9900891 1.013633 0.96782273 0.9426499 0.9988073 1.0281208
0.98884356 0.99389917 0.9642394 0.88334256 1.0503801 0.928006 0.95802087 0.8898902
0.9994499 1.0538504 0.938564 1.0793186 0.93580514 1.0492488 0.8903895 0.936376
0.9118351 1.077148 0.9357845 1.001971 1.050884 0.96936905 1.0462652 0.98705715
0.94918114 0.9795573 0.9669543 0.96687156 0.97776824 0.9964388 1.0301362 0.9768876

transformer.layers.0.norm1.bias f4 [48]
00000000: a849 18bd a63f af39 ca84 48bc dd90 2fbd
00000010: 2848 7f3c c169 3b3d e2ac 8d3d 3e81 b53c
00000020: ece1 3cbd d355 17bd 7341 47bd 5ea7 db3b
00000030: d401 0d3b a297 253d ac6c 4bbd 08ac 123d
00000040: 791d d2bc afa4 00bd 68f4 843d e560 10bc
00000050: 45a8 fd3d b9cc a1bc b0fb b53d 4473 f03b
00000060: 6353 a53b 4aa5 38bd 78a7 56bc a221 75bd
00000070: b379 ccbc 6c47 d33c e30b 9cbd 36c7 83bd
00000080: 6568 193d c526 003e 4c43 5e3b c8ba 6cbc
00000090: 8b6e 933c 7a31 25bb bbcd 71bd 23cc 42bd
000000a0: 00e2 4e3d 75ce 503d ac42 4ebc 3e0a ecbc
000000b0: 17e1 ce3c 8110 b93c 5be7 06bc 90e9 7c3d
-0.03717962 0.00033426023 -0.012238691 -0.04286276 0.015581168 0.04575515 0.069177404 0.022156354
-0.046113893 -0.036947083 -0.0486464 0.0067033013 0.0021515982 0.04042781 -0.049664184 0.035808593
-0.02564882 -0.031407055 0.06491929 -0.008812164 0.123856105 -0.01975094 0.08885896 0.0073379595
0.005045341 -0.045079507 -0.013101451 -0.059846528 -0.024960374 0.025790893 -0.07619455 -0.06434481
0.037453074 0.1251479 0.0033914624 -0.014448829 0.017997047 -0.0025206492 -0.05903409 -0.04755796
0.0505085 0.050978143 -0.012589138 -0.028813478 0.025253816 0.022590877 -0.00823387 0.06174618

transformer.layers.0.norm2.weight f4 [48]
00000000: dbed 4f3f 796a 773f e931 703f 4536 7b3f
00000010: 26f1 553f 9b72 5d3f c147 7c3f 6583 553f
00000020: c908 763f c28f 543f f2ac 723f a53d 523f
00000030: 46c7 533f 28a7 6c3f c16e 6b3f 81e1 7a3f
00000040: 0fd1 673f 0ec7 523f 0158 733f a7db 423f
00000050: a2d3 7b3f e931 5b3f a432 713f ca3a 5e3f
00000060: c8c5 6e3f 6266 7e3f 1614 693f f4eb 773f
00000070: fb54 543f 9aba 743f 9f7e 643f 4caa 533f
00000080: 214d 693f 2b40 7b3f c423 693f e10e 773f
00000090: 5eb6 763f bac9 5b3f 7be5 7d3f 9a84 743f
000000a0: 9df6 5f3f 7340 763f 76ae 673f 3a02 4e3f
000000b0: 58b2 783f 6cc6 783f 72c0 683f 3b41 6f3f
0.81222314 0.9664684 0.93826157 0.98129684 0.8357109 0.86503 0.9854699 0.8340362
0.96107155 0.83031857 0.94795144 0.8212531 0.8272594 0.9244256 0.9196587 0.9800034
0.90553373 0.82334983 0.9505616 0.7611641 0.983698 0.8562303 0.94217896 0.86808455
0.9327054 0.99374974 0.91046274 0.9684441 0.8294217 0.9559723 0.8925571 0.8268173
0.91133314 0.9814479 0.910702 0.9650708 0.9637202 0.85854685 0.99178284 0.95514834
0.87485677 0.9619209 0.9050058 0.8047215 0.9714713 0.9717777 0.9091865 0.9345891
